case-study/HiFPTuner/lulesh/src/emb-2.pt (torch, 863275 bytes, 1 tensors)

weight f4 [2155, 100]
-0.69026554 -0.99881625 -1.0340298 0.77192307 -1.5462111 1.1266886 1.1744436 1.376946
-0.51432973 0.33079955 -1.1792315 -0.4107532 -0.45340514 0.77772576 -0.040044293 1.5256405
0.21518987 -0.26231596 -0.6144189 -0.31023422 0.0758703 0.8135885 0.49119097 0.5181712
-0.40278783 -0.3487958 1.1128103 -0.8515997 -2.1903503 0.7586926 -0.12563738 -0.22597058
0.22070363 -0.9914003 -0.37080178 -0.7791411 -1.1193701 0.8320406 1.3852485 -0.44602704
-0.820353 -0.1811314 -0.27051574 1.3178446 -0.32838103 0.18066928 -1.1221673 -1.1870987
0.8255213 1.3847172 -1.0711458 -1.2861199 -0.16934441 -0.6819163 -0.5110206 0.40330476
0.03838338 0.2515248 0.37501198 0.032685306 1.3986326 0.0024071326 0.25330818 -0.05176393
0.99265945 2.0294611 0.009608789 1.7846918 0.76211154 -0.7191081 0.56907076 -1.0271701
-0.9673797 0.6930573 2.0316198 1.3522443 0.356773 -0.0806005 -0.5060531 0.5217165
-0.9209215 0.66758376 0.43587103 -0.69842935 -1.5183301 -0.14317158 -0.18873349 2.3419719
0.3821473 0.32913116 -0.1489476 -0.96413195 -0.6939191 1.3575947 -1.1426291 -0.4364543
-1.0328711 -1.0633758 0.8193874 -0.23169376 -1.5289333 -1.1413299 -0.77858967 -0.2517431
-1.3646152 -1.4946486 -0.28200996 0.17157806 0.60193807 -1.3151532 0.5757971 0.6316157
0.95958096 0.027438704 0.7792322 -0.7647964 -0.37743783 0.13946901 0.174267 0.84045166
1.2126344 0.36000663 -0.52560014 1.1588383 -0.46521726 0.037744675 0.27829677 -1.2717817
0.16157274 -0.46188694 0.32017344 -0.7318769 2.013883 0.66068053 -0.59684336 -1.3618594
-2.1585047 -1.6916217 -0.3488912 -1.3237836 -0.9355858 0.1773257 1.0154072 1.0877634
-1.59066 -1.7132376 -0.061044447 0.93394077 0.46919978 1.6201 0.97842115 -1.0500418
-0.4891271 0.23796026 0.113079436 1.769352 -0.42388856 -2.4717813 0.26194543 -0.5646127
0.20960896 -1.3756292 1.0570377 1.3673043 0.17104593 -0.9963537 -1.9524908 -0.029625008
-0.791804 1.1568818 -0.47246292 0.41026768 -0.7220853 -0.24016276 0.26502937 -0.14694579
-1.1267601 -0.19530396 -0.64673114 0.26065025 1.0710087 -1.1846273 -0.01961489 1.2566093
0.6236208 -1.1384252 1.2194172 1.4437114 -0.6790283 0.898794 0.892274 0.3909962
-0.79271334 2.4101188 0.3889901 0.19001533 0.12408703 0.6325029 -1.0575819 -0.14396262
0.481398 -0.8595988 0.17718685 0.0038935377 0.9985108 -0.48343596 -0.14920072 0.51469964
0.13018888 0.8600345 0.39835292 0.12263834 -0.18159777 1.6718099 0.3987766 -0.2247247
-2.336315 1.0394913 0.61826247 0.1557056 -0.49853867 0.40350184 -0.7817818 0.39780423
0.8203939 -1.2588643 -0.08296302 1.6627688 -1.2592882 0.3068864 -0.7194822 -0.69679654
-1.385775 0.38302764 -0.28133836 -1.163347 -0.35278973 1.5597408 1.0381478 -0.99978405
-0.21125157 -1.5478951 0.13689975 -0.5188546 0.3103911 0.30377814 0.44050002 0.57128805
0.9149622 0.65566015 1.4979091 -1.2878307 -0.46619326 1.0179524 1.9044808 -0.25986177
00000000: 3eb5 30bf 6cb2 7fbf 175b 84bf c09c 453f
00000010: 3fea c5bf 5537 903f 2b54 963f c43f b03f
00000020: 1dab 03bf 8f5e a93e 0ff1 96bf 3e4e d2be
00000030: b824 e8be 0919 473f 7c05 24bd 3048 c33f
00000040: bc5a 5c3e 474e 86be 8f4a 1dbf 05d7 9ebe
00000050: e361 9b3d 5647 503f 627d fb3e dea6 043f
00000060: 353a cebe 5d95 b2be 9170 8e3f 7002 5abf
00000070: b32e 0cc0 ae39 423f 16a7 00be d564 67be
00000080: 2200 623e 69cc 7dbf bbd9 bdbe cb75 47bf
00000090: 8547 8fbf 9d00 553f d34f b13f a85d e4be
000000a0: a702 52bf 827a 39be 0a81 8abe 22af a83f
000000b0: 8f21 a8be 5e01 393e 2ea3 8fbf daf2 97bf
000000c0: 5d55 533f 6a3e b13f 4e1b 89bf 949f a4bf
000000d0: 9f68 2dbe 1192 2ebf 3fd2 02bf f67d ce3e
000000e0: e437 1d3d dcc7 803e 9201 c03e 07e1 053d
000000f0: 6506 b33f fcc0 1d3b 9cb1 813e 6a06 54bd
00000100: ee1e 7e3f b1e2 0140 2f6e 1d3c c870 e43f
00000110: be19 433f 7817 38bf 9fae 113f 4f7a 83bf
00000120: 32a6 77bf 346c 313f 0f06 0240 5716 ad3f
00000130: f3aa b63e e011 a5bd b28c 01bf 368f 053f
00000140: 83c1 6bbf c5e6 2a3f 7d2a df3e 44cc 32bf
00000150: a458 c2bf 929b 12be 5a43 41be dee2 1540
00000160: d0a8 c33e e183 a83e b885 18be 5ad1 76bf
00000170: afa4 31bf aac5 ad3f ac41 92bf f076 dfbe
00000180: 1f35 84bf b31c 88bf 5fc3 513f 2141 6dbe
00000190: 16b4 c3bf 1917 92bf a751 47bf 79e4 80be
000001a0: b6ab aebf a550 bfbf 9c63 90be 29b2 2f3e
000001b0: 9d18 1a3f f156 a8bf 7067 133f 91b1 213f
000001c0: 19a7 753f 22c7 e03c c37b 473f b2c9 43bf
000001d0: 883f c1be f7d0 0e3e 0c73 323e d727 573f
000001e0: 9b37 9b3f ca52 b83e bb8d 06bf d054 943f
000001f0: f530 eebe 299a 1a3d ea7c 8e3e bec9 a2bf
00000200: 5373 253e 727c ecbe c6ed a33e 495c 3bbf
00000210: 76e3 0040 5c22 293f baca 18bf 6951 aebf
00000220: f124 0ac0 0f87 d8bf dea1 b2be be71 a9bf
00000230: 8d82 6fbf de94 353e ddf8 813f d53b 8b3f
00000240: bf9a cbbf 5f4b dbbf be09 7abd be16 6f3f
00000250: f43a f03e 705f cf3f cf79 7a3f c567 86bf
00000260: de6e fabe dbab 733e 3196 e73d 207a e23f
00000270: ec07 d9be aa31 1ec0 b61d 863e 758a 10bf
00000280: bba3 563e 9e14 b0bf 034d 873f d403 af3f
00000290: aa26 2f3e 0911 7fbf 38eb f9bf 25b0 f2bc
000002a0: abb3 4abf b414 943f a9e6 f1be 9b0e d23e
000002b0: 95da 38bf 3aed 75be eeb1 873e f578 16be
000002c0: ad39 90bf c3fd 47be 2c90 25bf f373 853e
000002d0: d016 893f dea1 97bf 68af a0bc 93d8 a03f
000002e0: 9da5 1f3f ebb7 91bf dd15 9c3f 89cb b83f
000002f0: ccd4 2dbf 5d17 663f 126c 643f a730 c83e
00000300: 43ef 4abf 633f 1a40 b629 c73e 6193 423e
00000310: 5721 fe3d b6eb 213f d85e 87bf f06a 13be
00000320: cc79 f63e ab0e 5cbf 7870 353e b92a 7f3b
00000330: 679e 7f3f eb84 f7be 13c8 18be 5bc3 033f
00000340: 3c50 053e 392b 5c3f eaf4 cb3e cf29 fb3d
00000350: c4f4 39be defd d53f 722c cc3e 3b1e 66be
00000360: 2f86 15c0 0d0e 853f 7346 1e3f 4a71 1f3e
00000370: 7640 ffbe cb97 ce3e da22 48bf ffac cb3e
00000380: 5605 523f 7722 a1bf 84e8 a9bd 9cd5 d43f
00000390: 5b30 a1bf 3720 9d3e fc2f 38bf 4261 32bf
000003a0: 1361 b1bf 331c c43e 950b 90be 8ee8 94bf
000003b0: dba0 b4be 96a5 c73f 07e2 843f d9f1 7fbf
000003c0: 5552 58be 6d21 c6bf 732f 0c3e a8d3 04bf
000003d0: 95eb 9e3e cf88 9b3e 3889 e13e ef3f 123f
000003e0: f63a 6a3f 58d9 273f 7cbb bf3f a3d7 a4bf
000003f0: e2b0 eebe 444c 823f 07c6 f33f 9a0c 85be
